test_qubo/run1/rbm_pm_checkpoint.pth (torch, 367419 bytes, 3 tensors)

W f4 [64, 784]
00000000: 42bf fbbc e247 76bd 2a96 6fbd d7c2 9bbd
00000010: 4436 64bd db29 94bd b848 6dbd 5bbe 9bbd
00000020: 5c67 8fbd 01fd 27bd 8e98 7bbd 8181 92bd
00000030: 79c9 89bd fe8f 4ebd 5892 4dbd da0c 42bd
00000040: 4cc5 13bd 4a56 53bd b6e4 7fbd b083 59bd
00000050: cb86 8fbd b21c 35bd 8ef5 54bd acf6 e6bc
00000060: 8620 37bd e460 5fbd e883 52bd 0e21 16bd
00000070: 9049 56bd cc91 5fbd e09f 42bd 0a80 7bbd
00000080: 7151 c5bd 82f6 96bd 7f77 71bd 30e6 18bd
00000090: 9961 6cbd 66f4 69bd 2eb9 5dbd f3d9 8ebd
000000a0: f508 48be e32d 29be 0b95 8fbd 78fa 34be
000000b0: b9df cebd 3745 0dbe 81bb f1bd 7d68 debd
000000c0: 9cbf a5bd e777 6ebd f4e8 74bd 0f76 49bd
000000d0: a444 75bd 6200 1cbd 4e6e 86bd 9b8d a3bd
000000e0: 0ccc 71bd 659f 8ebd ba1e 6ebd 9628 46bd
000000f0: f1f4 95bd 457c 0bbd a11c 83bd 9d55 94bc
00000100: 3db6 86bc 8385 5e3d afd4 253c 3d51 acbd
00000110: 2216 14be da94 00be 927c 01be 4cb2 33be
00000120: 1827 35be 98db ffbd c65c 8fbd 6ff0 933c
00000130: de5a 36bb e8d7 58bd 5a8f bbbd 3831 92bd
00000140: 3de7 5ebd 069c 85bd c508 3cbd 6889 5abd
00000150: 8884 7ebd 4a12 2dbd 8d93 09bd 6f33 84bd
00000160: eee3 14bd 241c 6ebd 8c91 14bd e701 603c
00000170: caf8 783d 4f1e e73c 5ba4 da3c cb4c 42bc
00000180: de27 05be bf38 aabd 2a23 84bd ab90 e0bd
00000190: 2d9f bfbd 1262 6cbd 42e6 963d bb1f e83c
000001a0: 1128 8bbd 3839 063c 61a3 29bd 614d 00bd
000001b0: d6b2 88bc 680f cebb b65f 30bd e0fe 4ebd
000001c0: 9899 93bd 8818 82bd 5e57 65bd 045f 4cbd
000001d0: d3e7 b4bc 6cdd 97bc a488 65bc a24f 0b3c
000001e0: af00 ba3d 1e5a 0c3e fee9 dd3d e0f3 bdbc
000001f0: c922 22be 404e 84bd d82b 4b3d 1397 603c
00000200: 6cfe fcbc a315 a73d d28f 6d3d 0422 8c3d
00000210: da73 c33d e043 143d 0e86 8b3d 4f30 173d
00000220: 133a d1bc 012c 45bb 86d8 44bd 1c18 5abd
00000230: 0c0c 97bd 6834 41bd 3fee 7fbd 8a63 51bd
00000240: 5cbe 1bbd 383f e53b 64cb 523c 08b4 fdba
00000250: e5f5 fb3d 5985 453e eb16 e43d aa15 dabc
00000260: 8492 7ebd ee53 523d bb51 473d b371 96bb
00000270: f4b0 483c 1543 e0bb 4c9b fe3c 52f8 f43d
00000280: 53fa 283d 9d58 263e d20a bc3d 8081 4a3b
00000290: 39a6 bfbc 3bc8 88bd e7fb 45bd 3ce0 8dbd
000002a0: 8092 96bd f61a 34bd e63f 22bd e0e5 54bd
000002b0: 0080 5fbd a8c4 23bc 78f6 1ebb eb36 c13c
000002c0: affb dd3d 5834 a83d 98ca 373e aef3 2abd
000002d0: f935 a0bd 826c 75bd 61e3 ccbb 3977 ad3d
000002e0: c3c4 34bd 4bd6 a63c e8e2 253d f3e1 aa3d
000002f0: d83f 073d bb9c 203e 6e61 693d 3783 6cbc
00000300: 7524 273d af45 e5bc ae65 0abd 35c8 81bd
00000310: b1d4 8dbd 0e18 67bd ca3a 10bd fc4f 3ebd
00000320: 6f16 ddbc 4ab4 f8bc 60f1 79ba ae94 cb3d
00000330: 6683 183e d0a3 113e 9745 0e3e e48f e1bc
00000340: 4a71 a73b 9810 94bd a36d 91bd 716d 09be
00000350: 0e0d dabd 4389 c33d 4aee 0c3d 2b10 813d
00000360: dae1 893d d7c2 053e 001f 7338 d769 763d
00000370: 6a00 523c 19d7 9cbc 1a94 e4bc 84c0 63bd
00000380: 0e55 8abd a7c4 12bd 44bc 50bd 5879 8bbd
00000390: b6eb 59bd 3cdd 20bd 4bc8 ec3c 74d8 d93d
000003a0: 6a3f 583e f5d4 213e 01c6 b5bc 0913 193c
000003b0: 67cb 723c e273 b8bd 98af e4bd 7c75 6fbd
000003c0: 62d0 913b 95ff aa3c 705d f43c 7042 123e
000003d0: e16d 6e3d 90b1 3f3d 451a c83c b326 6f3c
000003e0: 8a74 76bd dfbe 53bd 1d94 b2bc 543a 75bd
000003f0: 4eb1 36bd 2051 7dbd d285 75bd 5235 2fbd
-0.030730847 -0.060127147 -0.058492817 -0.07605522 -0.055715814 -0.07234546 -0.057930678 -0.07604667
-0.07002136 -0.041012768 -0.061424784 -0.07153607 -0.06727881 -0.05043029 -0.050188392 -0.047375537
-0.03607683 -0.051595964 -0.062473975 -0.053104103 -0.070081316 -0.04421682 -0.05199199 -0.028193794
-0.04470875 -0.05453576 -0.051395327 -0.036652617 -0.05231625 -0.054582402 -0.04751575 -0.061401404
-0.09634674 -0.073712364 -0.05895185 -0.0373289 -0.057710264 -0.057117842 -0.05413168 -0.06975164
-0.19534667 -0.1652141 -0.070108496 -0.17673671 -0.101012655 -0.13795935 -0.11803342 -0.10859773
-0.08093187 -0.058219817 -0.059792474 -0.049184855 -0.059879914 -0.038086303 -0.06564008 -0.079859935
-0.059032485 -0.06963996 -0.058134772 -0.04837855 -0.073221095 -0.03405406 -0.06401945 -0.01810723
-0.01644432 0.054326545 0.0101215085 -0.084139325 -0.14461568 -0.12556782 -0.12645176 -0.17548484
-0.17690694 -0.12493056 -0.07000117 0.018058984 -0.0027825157 -0.05294028 -0.091582015 -0.07138294
-0.054419745 -0.065239 -0.0459068 -0.053353697 -0.06213811 -0.04225377 -0.03358798 -0.06455123
-0.036350183 -0.058132306 -0.036271617 0.013672329 0.06078414 0.028212694 0.026689699 -0.011859129
-0.1300349 -0.08311605 -0.064520195 -0.10965093 -0.09356532 -0.057710715 0.07368137 0.028335443
-0.067947514 0.008192353 -0.041415576 -0.031323794 -0.016686838 -0.0062884577 -0.043060027 -0.050536036
-0.0720703 -0.06352335 -0.055991523 -0.0498953 -0.022083199 -0.0185382 -0.014009628 0.008502873
0.09082162 0.13706252 0.10835646 -0.023187578 -0.15833582 -0.064602375 0.04960236 0.013707894
-0.030883037 0.08158424 0.057998486 0.068424255 0.09543581 0.036197543 0.06812678 0.036911305
-0.025540387 -0.0030086043 -0.048058055 -0.05324565 -0.07375345 -0.04716912 -0.06248307 -0.05112032
-0.038023338 0.0069960617 0.012865875 -0.0019356022 0.1230276 0.1928915 0.11137184 -0.026621658
-0.062151447 0.051349573 0.04866193 -0.0045911907 0.01224922 -0.0068439343 0.03107991 0.11961426
0.041254353 0.16244741 0.09181751 0.0030899942 -0.02339469 -0.06678816 -0.048335936 -0.06927535
-0.073521614 -0.043971024 -0.03961172 -0.05197704 -0.05456543 -0.009995617 -0.0024255794 0.023585757
0.108390205 0.08213109 0.17948377 -0.041736297 -0.078227945 -0.059917934 -0.0062526916 0.084700055
-0.04413296 0.020365855 0.040499598 0.08343878 0.03301987 0.15684788 0.05697768 -0.014435581
0.040806253 -0.02798733 -0.033788376 -0.063370146 -0.06925333 -0.056419425 -0.035212316 -0.046462998
-0.026988236 -0.030359406 -0.0009534564 0.09940468 0.14893875 0.14222646 0.13893734 -0.027534433
0.0051099407 -0.072297275 -0.0710099 -0.13420655 -0.10647021 0.09547665 0.034406938 0.06301912
0.06732531 0.13062607 5.7964586e-05 0.06015953 0.0128174815 -0.019145535 -0.027902652 -0.05560352
-0.06754504 -0.035832074 -0.050960794 -0.06810254 -0.053203307 -0.039273486 0.0289041 0.10636988
0.2111794 0.15803893 -0.022189142 0.009342917 0.014819003 -0.09006478 -0.11166304 -0.05846165
0.00444989 0.020873824 0.02982971 0.14283156 0.058210257 0.046800196 0.024426589 0.014596629
-0.060169734 -0.0516957 -0.021799142 -0.05987008 -0.044602685 -0.061844945 -0.059942074 -0.04277546

c f4 [64]
00000000: a5ad c53f 9c59 983f 3ab6 653f bd28 583f
00000010: 50ee f93f 8575 a33f 9446 d03f 6045 d53f
00000020: b2c7 8e3f be02 90bd c851 d83f 438f ae3f
00000030: 1333 9c3f fd64 1940 5107 6c3f 1d57 d73e
00000040: feed 973f cafb a63f f664 903f 092f 8f3f
00000050: 4966 5b3f 5ba5 803f 134c b53f 488c 893f
00000060: 652e f13f 5a24 b63f 4be9 303f 666b 7b3f
00000070: fe8c 9a3f 313f 1b40 4f01 a73f ebe4 3a3f
00000080: 4db9 e73f 2c1c d83f 7f76 fa3f bd86 a13f
00000090: df4a 163f 193a 9d3f 7ddc 0040 5c3e d13f
000000a0: 1b4c b53f 55cd 913f ff80 913f 3071 7d3f
000000b0: ea87 ce3f 8c2d d03f 1b0d b03f 867c a23f
000000c0: 31f5 823c 3cdf 0440 a22b f23f ae96 9e3f
000000d0: df7d e43f 4103 a03f 973a 1040 a0a9 b43f
000000e0: 8b50 aa3f 04b9 a63f f910 d03f 3d6c bc3f
000000f0: dc03 f43f 68f7 ae3e d8d6 933f 63c6 943f
1.5443617 1.1902347 0.8973118 0.8443716 1.9525852 1.2770239 1.6271539 1.6661797
1.1154692 -0.07031773 1.6899958 1.363747 1.2203087 2.3967888 0.92198664 0.4205865
1.1869504 1.304559 1.1280811 1.1186229 0.8570295 1.0050462 1.4163841 1.0745935
1.8842283 1.4229844 0.69105977 0.9821075 1.2074277 2.425732 1.3047274 0.7300555
1.8103424 1.6883597 1.9567412 1.2619244 0.58707994 1.2283355 2.0134575 1.6347156
1.416385 1.1390787 1.1367491 0.99000835 1.6135228 1.62639 1.3754 1.2694252
0.015986057 2.0761251 1.8919566 1.2389734 1.7850913 1.2500993 2.253576 1.4114265
1.330583 1.3025212 1.625518 1.4720532 1.9063678 0.3417313 1.154994 1.1623043

b f4 [784]
00000000: e451 b8be 6a3d aabe 7314 aebe 360a b7be
00000010: b11e a5be 40e1 babe a547 c1be cfa3 b0be
00000020: c3cc ccbe 225c afbe 7214 cebe cfa3 b0be
00000030: c5cc acbe 548f c2be 6066 a6be 673d cabe
00000040: 02d7 c3be 538f c2be 3fe1 babe 87c2 b5be
00000050: ed28 bcbe e451 b8be ed28 bcbe 215c afbe
00000060: b21e a5be d97a b4be 6a3d aabe b21e a5be
00000070: d0a3 b0be 02d7 c3be ed28 bcbe 6066 a6be
00000080: 683d cabe 538f c2be af1e c5be c5cc acbe
00000090: 225c afbe 9199 b9be 49b8 bebe 0cae c7be
000000a0: 3fe1 babe 1585 cbbe 7314 aebe 9299 b9be
000000b0: ec28 dcbe baf5 c8be f7ff bfbe f8ff bfbe
000000c0: 538f c2be 3fe1 babe ee28 bcbe 7beb d1be
000000d0: ed28 bcbe e351 b8be 360a b7be 350a b7be
000000e0: 1585 cbbe 7deb b1be 9199 b9be 7414 aebe
000000f0: f7ff bfbe 7beb d1be 350a b7be c6cc acbe
00000100: 04d7 a3be a647 c1be 6a3d aabe b01e c5be
00000110: d57a f4be 5c66 e6be e651 08bf d97a 24bf
00000120: b9f5 38bf 683d 2abf 360a 17bf 235c 0fbf
00000130: 89c2 05bf 7214 cebe c4cc ccbe bbf5 a8be
00000140: 02d7 c3be da7a b4be af1e c5be ed28 bcbe
00000150: ee28 bcbe 215c afbe 9c70 bdbe 1685 cbbe
00000160: 4bb8 9ebe e451 b8be d2a3 90be 693d aabe
00000170: 9d70 9dbe e651 b8be d0a3 d0be cda3 d0be
00000180: b31e 05bf d2a3 00bf 89c2 25bf b01e 35bf
00000190: e251 48bf a547 41bf d97a 34bf d1a3 10bf
000001a0: 9870 fdbe bbf5 c8be 6a3d aabe 568f a2be
000001b0: 2c33 b3be 9299 b9be e451 b8be 0dae a7be
000001c0: 88c2 b5be 40e1 babe 40e1 babe 03d7 a3be
000001d0: 1585 cbbe 2b33 b3be 88c2 b5be a847 a1be
000001e0: 7714 8ebe 9499 99be 215c cfbe 43e1 babe
000001f0: b31e c5be d2a3 10bf 558f 22bf 85c2 55bf
00000200: e251 58bf a747 41bf 1885 2bbf 9599 09bf
00000210: d87a f4be 6066 c6be b31e a5be 03d7 a3be
00000220: 49b8 bebe ed28 bcbe 673d cabe 5c66 c6be
00000230: 2c33 b3be b11e a5be 4ab8 bebe 350a b7be
00000240: 1f5c cfbe 1885 abbe f9ff 9fbe c6cc acbe
00000250: 1a85 8bbe bcf5 a8be 42e1 babe 7eeb d1be
00000260: dc7a 04bf 4ab8 2ebf af1e 45bf 85c2 55bf
00000270: 86c2 45bf 88c2 35bf ee28 fcbe bbf5 e8be
00000280: 48b8 debe 8ac2 95be 41e1 9abe 41e1 babe
00000290: bcf5 a8be 2c33 b3be 7ceb d1be bbf5 a8be
000002a0: 360a b7be 548f c2be 7414 aebe 0bae c7be
000002b0: f7ff bfbe ed28 bcbe f9ff 9fbe 1785 abbe
000002c0: c8cc 8cbe 1585 ebbe 80eb b1be 9c70 fdbe
000002d0: a847 21bf 4ab8 3ebf ea28 6cbf 528f 52bf
000002e0: 558f 22bf a847 11bf af1e e5be 5d66 c6be
000002f0: c5cc acbe b21e a5be 8bc2 95be d0a3 b0be
00000300: 7314 aebe d77a d4be f8ff bfbe 225c afbe
00000310: ed28 bcbe 2933 d3be 01d7 c3be 9b70 bdbe
00000320: 0bae c7be 9e70 9dbe 360a b7be 6b3d 8abe
00000330: d3a3 90be faff bfbe 1f5c cfbe 42e1 0abf
00000340: baf5 38bf 1d5c 6fbf 7beb 61bf 03d7 33bf
00000350: 390a 17bf aa47 01bf 7feb b1be 360a b7be
00000360: 9d70 9dbe faff 9fbe 693d aabe 40e1 babe
00000370: 40e1 babe 40e1 babe e351 b8be 673d cabe
00000380: e451 b8be b9f5 c8be 215c afbe 88c2 b5be
00000390: 9b70 bdbe 02d7 c3be 6c3d 8abe 380a 97be
000003a0: fbff 9fbe f328 9cbe 9299 f9be 0dae 27bf
000003b0: 84c2 65bf 5a66 76bf 5c66 56bf da7a 34bf
000003c0: 1585 ebbe 7feb b1be 9499 99be 9b70 7dbe
000003d0: 1985 8bbe 7614 8ebe 7eeb b1be 03d7 a3be
000003e0: ed28 bcbe 225c afbe 42e1 9abe 01d7 c3be
000003f0: b9f5 c8be b9f5 c8be 2b33 b3be faff 9fbe
-0.35999978 -0.3324998 -0.33999977 -0.35749978 -0.32249978 -0.36499977 -0.37749973 -0.34499976
-0.3999997 -0.3424998 -0.40249974 -0.34499976 -0.33749977 -0.37999976 -0.3249998 -0.3949997
-0.38249975 -0.37999973 -0.36499974 -0.35499975 -0.36749974 -0.35999978 -0.36749974 -0.34249976
-0.3224998 -0.35249975 -0.3324998 -0.3224998 -0.3449998 -0.38249975 -0.36749974 -0.3249998
-0.39499974 -0.37999973 -0.38499972 -0.33749977 -0.3424998 -0.36249974 -0.37249973 -0.38999975
-0.36499974 -0.3974997 -0.33999977 -0.36249977 -0.4299997 -0.39249974 -0.37499973 -0.37499976
-0.37999973 -0.36499974 -0.36749977 -0.4099997 -0.36749974 -0.35999975 -0.35749978 -0.35749975
-0.3974997 -0.34749976 -0.36249974 -0.3399998 -0.37499973 -0.4099997 -0.35749975 -0.3374998
-0.3199998 -0.37749976 -0.3324998 -0.38499975 -0.47749963 -0.4499997 -0.5324997 -0.6424995
-0.72249943 -0.6649995 -0.58999956 -0.55999964 -0.5224996 -0.40249974 -0.39999974 -0.32999977
-0.38249975 -0.35249978 -0.38499972 -0.36749974 -0.36749977 -0.34249976 -0.36999977 -0.39749974
-0.3099998 -0.35999978 -0.28249985 -0.33249977 -0.3074998 -0.35999984 -0.4074998 -0.4074997
-0.5199997 -0.5024997 -0.6474996 -0.7074995 -0.78249943 -0.75499946 -0.7049995 -0.56499964
-0.49499965 -0.39249977 -0.3324998 -0.31749982 -0.3499998 -0.36249977 -0.35999978 -0.32749978
-0.35499978 -0.36499977 -0.36499977 -0.31999978 -0.3974997 -0.34999976 -0.35499978 -0.31499982
-0.27749988 -0.29999983 -0.40499976 -0.36499986 -0.38499984 -0.5649997 -0.6349996 -0.8349994
-0.84499943 -0.7549996 -0.6699996 -0.5374997 -0.47749972 -0.3874998 -0.32249984 -0.31999978
-0.37249973 -0.36749974 -0.3949997 -0.3874997 -0.3499998 -0.32249978 -0.37249976 -0.35749975
-0.4049997 -0.3349998 -0.3124998 -0.3374998 -0.27249986 -0.3299998 -0.36499983 -0.4099998
-0.5174997 -0.6824995 -0.76999944 -0.8349994 -0.77249944 -0.70999956 -0.49249977 -0.45499977
-0.4349997 -0.29249984 -0.3024998 -0.3649998 -0.3299998 -0.3499998 -0.40999973 -0.32999977
-0.35749978 -0.37999976 -0.3399998 -0.38999972 -0.37499973 -0.36749974 -0.3124998 -0.33499977
-0.27499986 -0.4599997 -0.34749985 -0.49499977 -0.62999964 -0.7449995 -0.9224993 -0.8224994
-0.6349996 -0.56749964 -0.44749972 -0.38749972 -0.33749977 -0.3224998 -0.29249987 -0.3449998
-0.33999977 -0.4149997 -0.37499976 -0.3424998 -0.36749974 -0.4124997 -0.38249972 -0.36999974
-0.38999972 -0.30749983 -0.35749978 -0.26999983 -0.28249988 -0.37499982 -0.4049997 -0.54249966
-0.7224995 -0.9349993 -0.8824994 -0.70249957 -0.58999974 -0.50499976 -0.34749982 -0.35749978
-0.3074998 -0.31249982 -0.33249977 -0.36499977 -0.36499977 -0.36499977 -0.35999975 -0.3949997
-0.35999978 -0.39249972 -0.34249976 -0.35499978 -0.36999974 -0.38249975 -0.26999986 -0.29499984
-0.31249985 -0.30499992 -0.48749977 -0.65499955 -0.8974993 -0.96249926 -0.8374994 -0.70499957
-0.4599997 -0.34749982 -0.29999983 -0.24749987 -0.27249983 -0.27749985 -0.3474998 -0.31999978
-0.36749974 -0.3424998 -0.30249983 -0.38249972 -0.39249972 -0.39249972 -0.34999976 -0.31249982
